____________________________________________________________________________________________________
Layer (type)                     Output Shape          Param #     Connected to
====================================================================================================
input_1 (InputLayer)             (None, 3561)          0
____________________________________________________________________________________________________
dense_1 (Dense)                  (None, 1536)          5471232     input_1[0][0]
____________________________________________________________________________________________________
dropout_1 (Dropout)              (None, 1536)          0           dense_1[0][0]
____________________________________________________________________________________________________
dense_2 (Dense)                  (None, 768)           1180416     dropout_1[0][0]
____________________________________________________________________________________________________
dense_3 (Dense)                  (None, 1536)          1181184     dense_2[0][0]
____________________________________________________________________________________________________
dropout_2 (Dropout)              (None, 1536)          0           dense_3[0][0]
____________________________________________________________________________________________________
dense_4 (Dense)                  (None, 3561)          5473257     dropout_2[0][0]
====================================================================================================
Total params: 13306089
____________________________________________________________________________________________________
None
Train on 93705 samples, validate on 93702 samples
Epoch 1/2
93705/93705 [==============================] - 1840s - loss: 6.1025 - val_loss: 1.7285e-04
…
