Input is not preprocessed..
___________________________________________________________________________________________________
Layer (type)                     Output Shape          Param #     Connected to
====================================================================================================
input_1 (InputLayer)             (None, 3561)          0
____________________________________________________________________________________________________
dense_1 (Dense)                  (None, 700)           2493400     input_1[0][0]
____________________________________________________________________________________________________
dropout_1 (Dropout)              (None, 700)           0           dense_1[0][0]
____________________________________________________________________________________________________
dense_2 (Dense)                  (None, 350)           245350      dropout_1[0][0]
____________________________________________________________________________________________________
dense_3 (Dense)                  (None, 700)           245700      dense_2[0][0]
____________________________________________________________________________________________________
dropout_2 (Dropout)              (None, 700)           0           dense_3[0][0]
____________________________________________________________________________________________________
dense_4 (Dense)                  (None, 3561)          2496261     dropout_2[0][0]
====================================================================================================
Total params: 5480711
____________________________________________________________________________________________________
None
Train on 93705 samples, validate on 93700 samples
Epoch 1/2
93705/93705 [==============================] - 315s - loss: 3.9868 - val_loss: 0.0074
Epoch 2/2
…
